…
args[\u0026#34;output\u0026#34;], outputs) Trong code đã có đầy đủ comments, hi vọng các bạn có thể hiểu được.\nTiến hành chạy code (mình dùng python 3.8, tensorflow 2.3.0 trong môi trường ảo anaconda):\n$ python train_conv_autoencoder.py Output:\n Kiến trúc của Encoder:  Model: \u0026#34;encoder\u0026#34; _________________________________________________________________ Layer (type) Output Shape Param #  ================================================================= input_1 (InputLayer) [(None, 28, 28, 1)] 0 _________________________________________________________________ conv2d (Conv2D) (None, 14, 14, 32) 320 _________________________________________________________________ leaky_re_lu (LeakyReLU) (None, 14, 14, 32) 0 _________________________________________________________________ batch_normalization (BatchNo (None, 14, 14, 32) 128 _________________________________________________________________ conv2d_1 (Conv2D) (None, 7, 7, 64) 18496 _________________________________________________________________ leaky_re_lu_1 (LeakyReLU) (None, 7, 7, 64) 0 _________________________________________________________________ batch_normalization_1 (Batch (None, 7, 7, 64) 256 _________________________________________________________________ flatten (Flatten) (None, 3136) 0 _________________________________________________________________ dense (Dense) (None, 16) 50192 ================================================================= Total params: 69,392 Trainable params: 69,200 Non-trainable params: 192 Ta thấy từ kiến trúc trên, Input Data ban đầu là 28x28x1 = 784 bytes, sau khi chuyển sang Latent Space, dữ liệu chỉ còn là vector 16 bytes.\n Kiến trúc của Decoder:  Model: \u0026#34;decoder\u0026#34; _________________________________________________________________ Layer (type) Output Shape Param #  ================================================================= input_2 (InputLayer) [(None, 16)] 0 _________________________________________________________________ dense_1 (Dense) (None, 3136) 53312 _________________________________________________________________ reshape (Reshape) (None, 7, 7, 64) 0 _________________________________________________________________ conv2d_transpose (Conv2DTran (None, 14, 14, 64) 36928 _________________________________________________________________ leaky_re_lu_2 (LeakyReLU) (None, 14, 14, 64) 0 _________________________________________________________________ batch_normalization_2 (Batch (None, 14, 14, 64) 256 _________________________________________________________________ conv2d_transpose_1 (Conv2DTr (None, 28, 28, 32) 18464 _________________________________________________________________ leaky_re_lu_3 (LeakyReLU) (None, 28, 28, 32) 0 _________________________________________________________________ batch_normalization_3 (Batch (None, 28, 28, 32) 128 _________________________________________________________________ conv2d_transpose_2 (Conv2DTr (None, 28, 28, 1) 289 _________________________________________________________________ activation (Activation) (None, 28, 28, 1) 0 ================================================================= Total params: 109,377 Trainable params: 109,185 Non-trainable params: 192 Ngược lại với Encoder, từ vector 16 bytes trong Latent Space, Decoder tái hiện lại Input Data với 28x28x1 = 784 bytes.\n Kiến trúc của Autoencoder:  Model: \u0026#34;autoencoder\u0026#34; _________________________________________________________________ Layer (type) Output Shape Param #  ================================================================= input_1 (InputLayer) [(None, 28, 28, 1)] 0 _________________________________________________________________ encoder (Functional) (None, 16) 69392 _________________________________________________________________ decoder (Functional) (None, 28, 28, 1) 109377 ================================================================= Total params: 178,769 Trainable params: 178,385 Non-trainable params: 384  Log train:  Epoch 1/25 2021-03-10 23:17:48.593945: I tensorflow/stream_executor/platform/default/dso_loader.cc:48] Successfully opened dynamic library libcublas.so.10 2021-03-10 23:17:48.741732: I tensorflow/stream_executor/platform/default/dso_loader.cc:48]
…
